Model
________________________________________________________________________________
Layer (type)                        Output Shape                    Param #     
================================================================================
dense_1 (Dense)                     (None, 500)                     267500      
________________________________________________________________________________
dropout_1 (Dropout)                 (None, 500)                     0           
________________________________________________________________________________
dense_2 (Dense)                     (None, 400)                     200400      
________________________________________________________________________________
dropout_2 (Dropout)                 (None, 400)                     0           
________________________________________________________________________________
dense_3 (Dense)                     (None, 200)                     80200       
________________________________________________________________________________
dropout_3 (Dropout)                 (None, 200)                     0           
________________________________________________________________________________
dense_4 (Dense)                     (None, 50)                      10050       
________________________________________________________________________________
dropout_4 (Dropout)                 (None, 50)                      0           
________________________________________________________________________________
dense_5 (Dense)                     (None, 1)                       51          
================================================================================
Total params: 558,201
Trainable params: 558,201
Non-trainable params: 0
________________________________________________________________________________


