Model
________________________________________________________________________________
Layer (type)                        Output Shape                    Param #     
================================================================================
dense_1 (Dense)                     (None, 400)                     214000      
________________________________________________________________________________
dropout_1 (Dropout)                 (None, 400)                     0           
________________________________________________________________________________
dense_2 (Dense)                     (None, 300)                     120300      
________________________________________________________________________________
dropout_2 (Dropout)                 (None, 300)                     0           
________________________________________________________________________________
dense_3 (Dense)                     (None, 200)                     60200       
________________________________________________________________________________
dropout_3 (Dropout)                 (None, 200)                     0           
________________________________________________________________________________
dense_4 (Dense)                     (None, 100)                     20100       
________________________________________________________________________________
dropout_4 (Dropout)                 (None, 100)                     0           
________________________________________________________________________________
dense_5 (Dense)                     (None, 50)                      5050        
________________________________________________________________________________
dropout_5 (Dropout)                 (None, 50)                      0           
________________________________________________________________________________
dense_6 (Dense)                     (None, 1)                       51          
================================================================================
Total params: 419,701
Trainable params: 419,701
Non-trainable params: 0
________________________________________________________________________________


