Model
________________________________________________________________________________
Layer (type)                        Output Shape                    Param #     
================================================================================
dense_1 (Dense)                     (None, 500)                     267500      
________________________________________________________________________________
dropout_1 (Dropout)                 (None, 500)                     0           
________________________________________________________________________________
dense_2 (Dense)                     (None, 500)                     250500      
________________________________________________________________________________
dropout_2 (Dropout)                 (None, 500)                     0           
________________________________________________________________________________
dense_3 (Dense)                     (None, 200)                     100200      
________________________________________________________________________________
dropout_3 (Dropout)                 (None, 200)                     0           
________________________________________________________________________________
dense_4 (Dense)                     (None, 100)                     20100       
________________________________________________________________________________
dropout_4 (Dropout)                 (None, 100)                     0           
________________________________________________________________________________
dense_5 (Dense)                     (None, 1)                       101         
================================================================================
Total params: 638,401
Trainable params: 638,401
Non-trainable params: 0
________________________________________________________________________________


