Model
________________________________________________________________________________
Layer (type)                        Output Shape                    Param #     
================================================================================
dense_1 (Dense)                     (None, 1000)                    535000      
________________________________________________________________________________
dense_2 (Dense)                     (None, 500)                     500500      
________________________________________________________________________________
dense_3 (Dense)                     (None, 200)                     100200      
________________________________________________________________________________
dense_4 (Dense)                     (None, 100)                     20100       
________________________________________________________________________________
dense_5 (Dense)                     (None, 1)                       101         
================================================================================
Total params: 1,155,901
Trainable params: 1,155,901
Non-trainable params: 0
________________________________________________________________________________


