Model
________________________________________________________________________________
Layer (type)                        Output Shape                    Param #     
================================================================================
dense_7 (Dense)                     (None, 534)                     285690      
________________________________________________________________________________
dropout_5 (Dropout)                 (None, 534)                     0           
________________________________________________________________________________
dense_8 (Dense)                     (None, 400)                     214000      
________________________________________________________________________________
dropout_6 (Dropout)                 (None, 400)                     0           
________________________________________________________________________________
dense_9 (Dense)                     (None, 300)                     120300      
________________________________________________________________________________
dropout_7 (Dropout)                 (None, 300)                     0           
________________________________________________________________________________
dense_10 (Dense)                    (None, 200)                     60200       
________________________________________________________________________________
dropout_8 (Dropout)                 (None, 200)                     0           
________________________________________________________________________________
dense_11 (Dense)                    (None, 100)                     20100       
________________________________________________________________________________
dropout_9 (Dropout)                 (None, 100)                     0           
________________________________________________________________________________
dense_12 (Dense)                    (None, 50)                      5050        
________________________________________________________________________________
dropout_10 (Dropout)                (None, 50)                      0           
________________________________________________________________________________
dense_13 (Dense)                    (None, 1)                       51          
================================================================================
Total params: 705,391
Trainable params: 705,391
Non-trainable params: 0
________________________________________________________________________________


