Model
________________________________________________________________________________
Layer (type)                        Output Shape                    Param #     
================================================================================
dense_1 (Dense)                     (None, 500)                     267500      
________________________________________________________________________________
dense_2 (Dense)                     (None, 250)                     125250      
________________________________________________________________________________
dense_3 (Dense)                     (None, 100)                     25100       
________________________________________________________________________________
dense_4 (Dense)                     (None, 50)                      5050        
________________________________________________________________________________
dense_5 (Dense)                     (None, 1)                       51          
================================================================================
Total params: 422,951
Trainable params: 422,951
Non-trainable params: 0
________________________________________________________________________________


