Model
________________________________________________________________________________
Layer (type)                        Output Shape                    Param #     
================================================================================
dense_1 (Dense)                     (None, 1000)                    535000      
________________________________________________________________________________
dropout_1 (Dropout)                 (None, 1000)                    0           
________________________________________________________________________________
dense_2 (Dense)                     (None, 400)                     400400      
________________________________________________________________________________
dropout_2 (Dropout)                 (None, 400)                     0           
________________________________________________________________________________
dense_3 (Dense)                     (None, 100)                     40100       
________________________________________________________________________________
dropout_3 (Dropout)                 (None, 100)                     0           
________________________________________________________________________________
dense_4 (Dense)                     (None, 50)                      5050        
________________________________________________________________________________
dropout_4 (Dropout)                 (None, 50)                      0           
________________________________________________________________________________
dense_5 (Dense)                     (None, 1)                       51          
================================================================================
Total params: 980,601
Trainable params: 980,601
Non-trainable params: 0
________________________________________________________________________________


