Model
________________________________________________________________________________
Layer (type)                        Output Shape                    Param #     
================================================================================
dense_1 (Dense)                     (None, 1000)                    535000      
________________________________________________________________________________
dropout_1 (Dropout)                 (None, 1000)                    0           
________________________________________________________________________________
dense_2 (Dense)                     (None, 400)                     400400      
________________________________________________________________________________
dropout_2 (Dropout)                 (None, 400)                     0           
________________________________________________________________________________
dense_3 (Dense)                     (None, 100)                     40100       
________________________________________________________________________________
dropout_3 (Dropout)                 (None, 100)                     0           
________________________________________________________________________________
dense_4 (Dense)                     (None, 100)                     10100       
________________________________________________________________________________
dropout_4 (Dropout)                 (None, 100)                     0           
________________________________________________________________________________
dense_5 (Dense)                     (None, 1)                       101         
================================================================================
Total params: 985,701
Trainable params: 985,701
Non-trainable params: 0
________________________________________________________________________________


