Model
________________________________________________________________________________
Layer (type)                        Output Shape                    Param #     
================================================================================
dense_6 (Dense)                     (None, 1000)                    535000      
________________________________________________________________________________
dropout_5 (Dropout)                 (None, 1000)                    0           
________________________________________________________________________________
dense_7 (Dense)                     (None, 400)                     400400      
________________________________________________________________________________
dropout_6 (Dropout)                 (None, 400)                     0           
________________________________________________________________________________
dense_8 (Dense)                     (None, 100)                     40100       
________________________________________________________________________________
dropout_7 (Dropout)                 (None, 100)                     0           
________________________________________________________________________________
dense_9 (Dense)                     (None, 100)                     10100       
________________________________________________________________________________
dropout_8 (Dropout)                 (None, 100)                     0           
________________________________________________________________________________
dense_10 (Dense)                    (None, 1)                       101         
================================================================================
Total params: 985,701
Trainable params: 985,701
Non-trainable params: 0
________________________________________________________________________________


